SKhynix_week5/sequential_models/results/250905_cnn1d/cnn1d_20250905_070856.pth (torch, 856817 bytes, 51 tensors)

conv_layers.0.weight f4 [64, 52, 3]
0.1411572 -0.6249288 -0.45253253 -0.23670702 -0.7326751 -0.13372907 -0.034717616 -0.21641189
-0.11561261 0.0502393 0.27401334 0.8209432 2.4685893 2.061829 -0.11282463 0.004672322
0.014719561 0.0020553437 -0.005850838 -0.11437344 -0.0031543786 2.518788 2.0604107 -0.09581876
-1.3818529 -0.25659797 0.13010684 -1.3603907 -0.11214658 0.5200086 -2.1087575 0.2737565
-0.6634014 -0.3728594 -0.2386096 0.21394086 -1.20441 -0.06867608 0.12317558 -2.0033152
-1.9586407 0.4456712 1.10805 -1.3129164 0.119771235 -0.41916922 -0.58716494 0.19244224
-1.3813409 1.3357884 -0.3108957 -2.2306104 0.2408205 -1.5971612 0.03410788 -0.048723817
0.014287879 -0.515631 -0.38034648 -1.7869896 -0.0019175652 -0.10611678 -0.06710817 0.012153479
-0.010694184 0.03937868 0.06673954 -0.20269425 0.06553199 0.07741118 -0.0048249867 -0.096453756
0.17536685 0.03255669 0.05130403 0.08913661 -0.11443296 0.11465964 0.026191005 -0.07363275
0.006092776 0.06807694 0.00473178 -0.0689212 0.07163713 -0.009075792 0.058559302 0.042371444
-0.04087312 0.023266241 -0.0012058492 -0.084801584 -0.026026614 0.0909697 0.0063151903 0.07480956
0.012484289 -0.07291325 -0.013370959 0.021596424 -0.06302074 -0.0021282188 0.08249692 0.00031540467
0.06818863 0.05000967 -0.03337701 0.031096384 0.04149687 -0.04218542 0.021994222 0.048571926
-0.031677052 0.03226349 0.024820458 -0.062903985 -0.0008047435 0.03118718 -0.052819878 0.009762842
0.035357635 -0.047208518 0.015005593 0.04042644 -0.04163605 0.02217963 0.023073014 -0.06203014
0.00013155921 0.032580808 -0.052311897 0.010059148 0.051551636 -0.029903805 0.046569146 0.032394063
0.021435883 0.092069544 0.046098664 -0.031027116 0.047356933 0.010598913 -0.07479899 -0.0007846419
0.012838761 -0.05394066 0.020928778 0.016863035 -0.07889815 -0.023371726 0.084374525 -0.017789751
0.0550873 -0.0010528526 -0.04270616 0.030415254 -0.027281618 -0.029281083 -0.031290893 -0.019932711
-0.0005055435 -0.04682802 0.061755776 0.057107363 0.054005787 -0.041527472 0.009348509 0.00495595
0.032142706 -0.02316269 -0.047833696 -0.006461762 -0.0077662626 -0.0030731221 -0.0020541914 -0.004562143
0.0003232931 0.03191594 -0.024011794 -0.04782131 -0.036750168 0.016139599 -0.055466007 -0.003809804
-0.0038641563 0.0061404593 -0.06387337 -0.030696902 -0.046500254 -0.033884138 0.021298917 -0.056873836
-0.040869825 0.0048658107 -0.055231187 0.030713065 -0.014679188 -0.010565743 0.029116085 -0.015748342
-0.03844703 -0.037500903 0.016023813 -0.055957876 -0.02690644 -0.008106231 -0.034702554 -0.030438919
0.046366464 -0.039728586 -0.0069082645 -0.009114286 -0.002994493 -0.021004623 -0.01503154 -0.027641244
-0.008037139 -0.011090282 -0.010308662 -0.0074935937 -0.013896646 -0.0065726144 -0.007652002 -0.0028984174
-0.0013980748 -0.0070912894 -0.0065034884 -0.004505127 -0.009405361 -0.012223242 -0.002725679 -0.009842739
-0.01196992 -0.0011978371 -0.009477949 -0.010834589 -0.007054896 -0.010221146 -0.011185699 -0.0034560824
-0.0097890785 -0.011429299 -0.0055838334 -0.011136436 -0.012674806 -0.0072023533 -0.0061091995 -0.008279329
-0.0029482897 -0.002201358 -0.0039962726 0.0014037247 -0.0048159286 -0.006988376 -0.0012466155 -0.0024109746
00000000: 838b 103e 55fb 1fbf 58b2 e7be 5363 72be
00000010: 9890 3bbf 46f0 08be 0f34 0ebd 149b 5dbe
00000020: 4ec6 ecbd b9c7 4d3d 7a4b 8c3e 5529 523f
00000030: 5efd 1d40 02f5 0340 9a10 e7bd 471a 993b
00000040: 502a 713c f2b2 063b 63b8 bfbb 9f3c eabd
00000050: b1b9 4ebb d333 2140 c5dd 0340 a03c c4bd
00000060: 8ee0 b0bf cf60 83be ba3a 053e 4821 aebf
00000070: 1bad e5bd 491f 053f e2f5 06c0 d029 8c3e
00000080: add4 29bf 6de7 bebe 1356 74be 5013 5b3e
00000090: 1b2a 9abf 0ba6 8cbd 7a43 fc3d 5136 00c0
000000a0: bdb4 fabf 042f e43e 95d4 8d3f a50d a8bf
000000b0: 9f4a f53d 599d d6be 7150 16bf 940f 453e
000000c0: c7cf b0bf 1dfb aa3f b92d 9fbe 52c2 0ec0
000000d0: a699 763e c76f ccbf b4b4 0b3d a092 47bd
000000e0: b517 6a3c 6500 04bf c6bc c2be 13bc e4bf
000000f0: d056 fbba c153 d9bd 0270 89bd 631f 473c
00000100: a936 2fbc 8a4b 213d bdae 883d 158f 4fbe
00000110: a335 863d c189 9e3d ec1a 9ebb 8c89 c5bd
00000120: 5e93 333e 2a5a 053d 2d24 523d 418d b63d
00000130: d45b eabd acd2 ea3d 858e d63c c4cc 96bd
00000140: e9a5 c73b ec6b 8b3d 0c0d 9b3b 8f26 8dbd
00000150: 7db6 923d a1b2 14bc e1db 6f3d ae8d 2d3d
00000160: 936a 27bd d898 be3c 960d 9eba 74ac adbd
00000170: c435 d5bc 524e ba3d a8ef ce3b c135 993d
00000180: e78a 4c3c 8b53 95bd de11 5bbc fcea b03c
00000190: 0511 81bd 9679 0bbb 25f4 a83d e65c a539
000001a0: 7ba6 8b3d f1d6 4c3d 55b6 08bd d8bd fe3c
000001b0: 9ff8 293d 9eca 2cbd 3a2d b43c 5bf3 463d
000001c0: ccbf 01bd b926 043d 4654 cb3c ced3 80bd
000001d0: 6cf5 52ba 427c ff3c a859 58bd 54f4 1f3c
000001e0: 2bd3 103d b85d 41bd 05da 753c 3296 253d
000001f0: 908a 2abd 0eb2 b53c 9e03 bd3c 5113 7ebd
00000200: 28f3 0939 7473 053d 0045 56bd 20cf 243c
00000210: cf27 533d d3f8 f4bc 4abf 3e3d a3af 043d
00000220: 4e9a af3c f58e bc3d f4d1 3c3d 942c febc
00000230: 58f9 413d 10a7 2d3c 3630 99bd 6db0 4dba
00000240: ab59 523c e2f0 5cbd d472 ab3c 5924 8a3c
00000250: 5a95 a1bd 1076 bfbc 8dcc ac3d d0bb 91bc
00000260: 38a3 613d dfff 89ba a8ec 2ebd 6929 f93c
00000270: b37d dfbc e2de efbc e12a 00bd ed49 a3bc
00000280: 7386 04ba bdce 3fbd a0f3 7c3d 69e9 693d
00000290: 2c35 5d3d b618 2abd 7d2a 193c 8665 a23b
000002a0: 12a8 033d afbf bdbc 44ed 43bd 30bd d3bb
000002b0: 227c febb 6f66 49bb 9d9f 06bb 077e 95bb
000002c0: aa7f a939 4aba 023d 62b4 c4bc 47e0 43bd
000002d0: 5887 16bd 3137 843c 5330 63bd e8ad 79bb
000002e0: c93d 7dbb e835 c93b 0bd0 82bd 1278 fbbc
000002f0: 0d77 3ebd 18ca 0abd 117b ae3c 8af4 68bd
00000300: 1e67 27bd 6171 9f3b 193a 62bd f799 fb3c
00000310: fa80 70bc f01b 2dbc db84 ee3c ab02 81bc
00000320: a27a 1dbd 8c9a 19bd 5f44 833c 1634 65bd
00000330: e56a dcbc ffcf 04bc 4424 0ebd 0a5b f9bc
00000340: c3ea 3d3d 71ba 22bd b95e e2bb 1654 15bc
00000350: 423f 44bb e311 acbc d946 76bc e46f e2bc
00000360: 34ae 03bc 04b4 35bc aae5 28bc d28c f5bb
00000370: c2ae 63bc 165f d7bb a5bd fabb 60f3 3dbb
00000380: 9b3f b7ba 0c5e e8bb 371b d5bb bf9f 93bb
00000390: f118 1abc fe43 48bc 4ea1 32bb 7143 21bc
000003a0: 7c1d 44bc be00 9dba 6649 1bbc 8f83 31bc
000003b0: c22c e7bb 9876 27bc 3944 37bc 717f 62bb
000003c0: 5f62 20bc f441 3bbc 97f8 b6bb 9975 36bc
000003d0: fda9 4fbc b801 ecbb ae2f c8bb 06a6 07bc
000003e0: 1838 41bb a944 10bb 2af3 82bb 2ffd b73a
000003f0: f0ce 9dbb bffe e4bb 7a65 a3ba 7101 1ebb

conv_layers.0.bias f4 [64]
0.00013005102 0.00021885055 0.00016822673 0.00030187343 -0.00018881781 2.9111106e-05 -0.00026127344 0.00030453588
-1.65901e-05 -0.00030669328 0.00022999101 4.0928036e-05 -0.00010241924 0.00031738175 -0.0001868086 -0.00017584831
-0.000121759265 4.0562423e-05 -0.0002757005 7.6669014e-05 -0.000343366 -0.00019116233 -0.00020749422 -0.00025791116
8.106279e-05 0.00015560116 -8.596924e-05 -0.0001067512 7.443448e-06 -0.00028760234 -0.0003368628 -0.00023010538
-0.00025712315 4.753259e-05 0.00028631967 0.00025313307 -0.00021840076 0.0001977932 0.00031111768 -7.510812e-05
-0.000115552466 -0.00033521882 -2.5601092e-05 -0.00013760974 8.979408e-05 -0.00032579305 -3.164473e-05 6.249528e-05
-8.7920445e-05 -5.45174e-05 0.000336765 0.0001550598 -0.00026404436 -0.00016069508 0.00016367344 0.0001545642
-0.00029839244 -0.00024247944 -0.00014670375 -4.309984e-05 2.1142429e-05 8.737605e-05 -0.00016542869 -0.00019787886
00000000: 4e5e 0839 3f7b 6539 0566 3039 c444 9e39
00000010: 65fd 45b9 a033 f437 87fb 88b9 1daa 9f39
00000020: f82a 8bb7 adcb a0b9 be29 7139 25aa 2b38
00000030: e9c9 d6b8 4266 a639 0de2 43b9 ec63 38b9
00000040: 0259 ffb8 9221 2a38 e58b 90b9 5dc9 a038
00000050: ce05 b4b9 bf72 48b9 ce92 59b9 4038 87b9
00000060: 4100 aa38 de28 2339 624a b4b8 9ddf dfb8
00000070: bbc2 f936 55c9 96b9 f69c b0b9 7148 71b9
00000080: 7cce 86b9 bb5d 4738 2d1d 9639 f2b6 8439
00000090: 8202 65b9 b566 4f39 821d a339 5d83 9db8
000000a0: c254 f2b8 4fc0 afb9 edc1 d6b7 554b 10b9
000000b0: d44f bc38 34cf aab9 45ba 04b8 e60f 8338
000000c0: ee61 b8b8 9da9 64b8 d58f b039 8c97 2239
000000d0: 6f6f 8ab9 4280 28b9 c19f 2b39 8312 2239
000000e0: 8e71 9cb9 1442 7eb9 7dd4 19b9 1ac6 34b8
000000f0: 055b b137 a93d b738 ed76 2db9 b47d 4fb9

conv_layers.1.weight f4 [64, 52, 5]
-0.000326375 -0.0006596464 -0.0006578124 -0.0008192389 -0.00067768263 -0.00019515555 6.143215e-05 -0.00020879484
-0.00027094746 -0.0010135683 0.00055492535 0.00090062316 0.0007442732 0.00018501053 -0.00033614354 -0.000609283
-0.0004491848 -0.0004211842 -0.00036572682 -0.0001327312 -0.00059983006 -0.00015565415 -0.00065781135 -0.000714962
-0.00071318593 -0.00036038773 -0.00044117228 -0.0007737645 -0.00044900813 -0.00040521406 -0.00028849192 -0.00064428966
-0.0007663145 -0.00054542604 -0.00050935126 -0.00049802836 -0.00043409577 -0.00022723323 -0.0005105614 -0.0008551788
-0.003374714 0.00279566 -0.0014493228 0.0036486008 -0.0040519093 -0.00039673242 -0.0001939768 -0.00046893608
-0.00034882894 -0.00031275998 -0.001384498 0.0016701506 -0.0021588553 -0.00029037273 -0.0013577804 -0.002853626
0.0020735888 -0.0011659863 0.0032191768 -0.0032829647 -0.0035824557 0.0026381877 -0.0014021775 0.0037483035
-0.0035661573 -0.0002829857 -0.0005106873 -0.00067168206 -0.0007980607 -0.00043865808 -0.00035877703 -0.00066379266
-0.00094365963 -0.00039004182 -0.0006021067 -0.0033023828 0.0022398585 -0.0014401377 0.0029582486 -0.0039133783
-0.00047746603 -0.0003677628 -0.00073836546 -5.06721e-05 -0.00073718117 -0.00042429485 -3.8635193e-05 -0.0009576562
0.00031181623 -0.0009087166 -0.00033368604 -0.00025632326 -0.00046326013 -0.0003214852 -0.0003283784 -0.00035918152
-0.001259741 0.0015525548 9.381156e-05 -0.00046469533 -0.0007545917 -0.00033081998 -0.00039004668 -0.00072859105
-0.0001585849 -0.00023062952 -0.0005110184 -0.00062331796 -0.00053972343 -0.0006277002 -0.00072835496 -0.0005246636
-0.00062771095 -0.00028124344 -0.00023186723 -0.0005601921 -0.00075676537 -0.0004467791 -0.0005458465 -0.0005393141
-0.00023930907 -0.0003152795 -0.0006356213 -0.0002886329 -0.0006349056 -0.0007150693 -0.00035824822 -0.000365423
-0.0005837671 -0.00044750172 -0.00075292744 -0.00039514457 -0.00054134196 -0.0007318707 -0.00060449855 -0.00033033328
-0.00071721897 -0.00047469433 -0.00027175344 -0.00047365192 -0.00033039195 -0.00036496832 -0.00059610646 -0.0006928749
-0.00055882597 -0.0007540785 -0.00044651673 -0.00047064037 -0.00059462053 -0.00024692144 -0.00050540164 -0.00040283435
-0.00026791322 -0.0002669726 -0.00017504001 -0.0005971582 -0.00047834314 -0.0006147601 -0.00044207665 -0.00023111119
-0.00043947477 -0.0005742364 -0.00048721535 -0.00072629907 -0.00063415687 -0.0005322491 -0.0005108271 -0.0005908099
-0.0003984746 -0.0003068246 -0.00041857982 -0.00041730178 -0.0005488032 -0.00047140877 -0.00058170105 -0.00066041166
-0.00045369688 -0.00036137865 -0.0005113517 -0.00014413378 -0.0002637691 -0.00076051976 -0.000660904 -0.00042796816
-0.00040741105 -0.0003927807 -0.000636531 -0.0003865888 -0.0006808944 -0.00037457314 -0.00070502545 -0.00056545495
-0.0003589584 -0.00038163256 -0.0005931016 -0.00032784685 -0.0005264564 -0.000744915 -0.00027404164 -0.00030075578
-0.0004565701 -0.0003990008 -0.00041236682 -0.00077108527 -0.00023714607 -0.0002849106 -0.0004524147 -0.00061215786
-0.00048457927 -0.00037513228 -0.00043982404 -0.0006577466 -0.00036127583 -0.00050723774 -0.00037883743 -0.0005867007
-0.0002476572 -0.00073066173 -0.00061600487 -0.0005793902 -0.0002784221 -0.0005952313 -0.00052920077 -0.000541811
-0.00018641722 -0.00071719085 -0.0006239517 -0.00080124114 -0.00058175006 -0.0006305127 -0.000492986 -0.000380974
-0.0005096173 -0.0004971763 -0.00045183106 -0.0006845573 -0.00052878354 -0.00031134087 -0.0004708358 -0.0003441907
-0.0005675471 -0.0003014954 -0.00035216022 -0.0004665081 -0.0002015255 -0.00046538163 -0.00048246823 -0.00045970644
-0.0007891094 -0.00021995576 -0.00062776305 -0.0006056883 -0.00054893875 -0.00072945905 -0.0005702576 -0.00026474192
00000000: 501d abb9 1fec 2cba 0b71 2cba 31c2 56ba
00000010: 83a6 31ba aba2 4cb9 22d5 8038 f0ef 5ab9
00000020: f40d 8eb9 b5d9 84ba 6978 113a cc17 6c3a
00000030: 541b 433a 63ff 4139 6c3c b0b9 4ab8 1fba
00000040: 9080 ebb9 63d2 dcb9 06bf bfb9 c32d 0bb9
00000050: ea3d 1dba 1837 23b9 f970 2cba 4a6c 3bba
00000060: 19f5 3aba 6cf2 bcb9 244d e7b9 75d6 4aba
00000070: da68 ebb9 e972 d4b9 bb40 97b9 8ce5 28ba
00000080: 7fe2 48ba ecfa 0eba fc85 05ba 1e8e 02ba
00000090: 5997 e3b9 7545 6eb9 32d7 05ba 142e 60ba
000000a0: 4e2a 5dbb 6437 373b 34f7 bdba 5d1d 6f3b
000000b0: e1c5 84bb 8600 d0b9 4066 4bb9 89db f5b9
000000c0: 07e3 b6b9 eff9 a3b9 0b78 b5ba f4e8 da3a
000000d0: 957b 0dbb 2b3d 98b9 8df7 b1ba e603 3bbb
000000e0: 0ce5 073b 02d4 98ba d3f8 523b 0227 57bb
000000f0: a2c7 6abb 72e5 2c3b 45c9 b7ba 19a6 753b
00000100: 31b6 69bb b35d 94b9 a5df 05ba d213 30ba
00000110: f234 51ba b1fb e5b9 3d1a bcb9 5f02 2eba
00000120: ed5f 77ba 877e ccb9 b2d6 1dba ca6c 58bb
00000130: 97ca 123b 01c3 bcba 2ddf 413b cc3b 80bb
00000140: 6854 fab9 4ad0 c0b9 de8e 41ba c188 54b8
00000150: 643f 41ba e473 deb9 390c 22b8 380b 7bba
00000160: 447b a339 f036 6eba 95f2 aeb9 2063 86b9
00000170: b9e1 f2b9 038d a8b9 342a acb9 8750 bcb9
00000180: e51d a5ba 187f cb3a b3bc c438 5aa2 f3b9
00000190: cbcf 45ba e871 adb9 2e7f ccb9 ebfe 3eba
000001a0: cf49 26b9 24d5 71b9 ddf5 05ba 2966 23ba
000001b0: 3a7c 0dba 3f8c 24ba 13ef 3eba 9489 09ba
000001c0: f88c 24ba db73 93b9 6321 73b9 dbd9 12ba
000001d0: aa61 46ba ad3d eab9 2317 0fba c260 0dba
000001e0: 0aef 7ab9 194c a5b9 d39f 26ba a753 97b9
000001f0: cb6f 26ba 7d73 3bba 43d3 bbb9 3f96 bfb9
00000200: f207 19ba aa9e eab9 1b60 45ba 682b cfb9
00000210: d8e8 0dba 03db 3fba 3677 1eba 9530 adb9
00000220: c003 3cba 65e0 f8b9 217a 8eb9 7c54 f8b9
00000230: 7538 adb9 3859 bfb9 0744 1cba 0ca2 35ba
00000240: 2d7e 12ba 5aad 45ba 761a eab9 48c0 f6b9
00000250: 4fe0 1bba 3c75 81b9 ee7c 04ba 8333 d3b9
00000260: b476 8cb9 75f8 8bb9 f28a 37b9 9c8a 1cba
00000270: 21ca fab9 da27 21ba 86c6 e7b9 7056 72b9
00000280: 4e69 e6b9 5a88 16ba f070 ffb9 1b65 3eba
00000290: 8c3d 26ba a286 0bba 07e9 05ba 95e0 1aba
000002a0: 5bea d0b9 4ddd a0b9 d574 dbb9 4cc9 dab9
000002b0: 8fdd 0fba 6a27 f7b9 4c7d 18ba 7a1f 2dba
000002c0: 2ade edb9 6c77 bdb9 3b0c 06ba 9e22 17b9
000002d0: 7d4a 8ab9 9e5d 47ba 8440 2dba ea60 e0b9
000002e0: c999 d5b9 22ee cdb9 dfdc 26ba 12af cab9
000002f0: 0d7e 32ba 5b62 c4b9 75d1 38ba 0a3b 14ba
00000300: 9532 bcb9 db15 c8b9 607a 1bba dce2 abb9
00000310: e401 0aba 6646 43ba 3fad 8fb9 c2ae 9db9
00000320: cd5f efb9 fb30 d1b9 f032 d8b9 a822 4aba
00000330: 6aaa 78b9 0e60 95b9 1332 edb9 3879 20ba
00000340: 210f feb9 67ad c4b9 2f98 e6b9 a16c 2cba
00000350: 9f69 bdb9 26f8 04ba b39e c6b9 d1cc 19ba
00000360: fdd7 81b9 e189 3fba 637b 21ba 38e2 17ba
00000370: 2ff9 91b9 4c09 1cba 10ba 0aba 5208 0eba
00000380: fe78 43b9 dd01 3cba b190 23ba 620a 52ba
00000390: 9680 18ba fe48 25ba bb3b 01ba 77bd c7b9
000003a0: d797 05ba f054 02ba bde3 ecb9 dd73 33ba
000003b0: 109e 0aba 773b a3b9 83da f6b9 7e74 b4b9
000003c0: 71c7 14ba 0712 9eb9 25a2 b8b9 a895 f4b9
000003d0: 9750 53b9 77fe f3b9 caf3 fcb9 c104 f1b9
000003e0: 3cdc 4eba eda3 66b9 7790 24ba 0ec7 1eba
000003f0: a8e6 0fba 2b39 3fba 577d 15ba 0fcd 8ab9

conv_layers.1.bias f4 [64]
-5.323258e-05 -0.00011997282 7.707267e-05 -0.00024734525 -0.00018057783 0.00013537324 0.00018351583 -2.0832089e-05
-0.00013247212 0.0001242072 0.00017454312 -0.00026915327 -5.620138e-05 -0.00025592215 -2.3287348e-05 0.00021551499
-0.00025080272 -0.00019034144 -4.004319e-05 8.456175e-05 0.00026793306 0.00011261036 0.00017823333 0.00023894363
0.00016508864 -0.00015487178 -0.00016411819 0.00017994264 -5.660597e-05 -0.00023588729 7.162848e-05 -0.00021536503
6.756276e-05 0.00026696772 0.00023063553 -4.697447e-06 2.4069679e-05 5.496672e-05 -9.5832635e-05 -0.00016218072
0.00026725637 -0.00025593 4.9855422e-05 -0.000108369146 0.00011234457 -0.00014232544 0.00012980498 -0.00017472896
-0.00013299822 0.00022165912 2.4700885e-05 0.00024323766 -0.0001787485 0.00018565149 3.470309e-05 0.00021469152
-6.733945e-05 -3.4369698e-06 2.353566e-05 -0.00016516457 3.420253e-05 -0.00016195125 0.00014645414 0.00024403851
00000000: 0c46 5fb8 eb99 fbb8 13a2 a138 1eae 81b9
00000010: 7e59 3db9 faf2 0d39 286e 4039 92c0 aeb7
00000020: 37e8 0ab9 9e3d 0239 9005 3739 241d 8db9
00000030: c6b9 6bb8 4a2d 86b9 3359 c3b7 ddfb 6139
00000040: 2c7e 83b9 6496 47b9 0cf4 27b8 be56 b138
00000050: 5e79 8c39 3a29 ec38 25e4 3a39 f18c 7a39
00000060: a51b 2d39 1465 22b9 2417 2cb9 fcae 3c39
00000070: 336c 6db8 8358 77b9 3f37 9638 9cd3 61b9
00000080: 7bb0 8d38 cdf7 8b39 c1d6 7139 c39e 9db6
00000090: 3ee9 c937 118c 6638 c1f9 c8b8 0e0f 2ab9
000000a0: 8b1e 8c39 582e 86b9 da1b 5138 3e44 e3b8
000000b0: 889a eb38 323d 15b9 421c 0839 7337 37b9
000000c0: 7075 0bb9 2b6d 6839 bf34 cf37 9d0d 7f39
000000d0: 6f6e 3bb9 71ab 4239 298e 1138 d11e 6139
000000e0: 9838 8db8 b1a6 66b6 726e c537 0730 2db9
000000f0: b074 0f38 75d1 29b9 7c91 1939 97e4 7f39

conv_layers.2.weight f4 [64, 52, 7]
0.67303216 0.18438037 0.14764859 -0.5737738 -0.46835786 -0.41099948 -0.25907263 -0.23068891
-0.10018827 -0.3270581 0.72099507 -1.2332263 1.0881257 1.2012669 -0.024107734 0.06510191
0.30605218 -0.026125383 -0.3628206 0.055479296 0.18553957 0.06525354 -0.07671989 -0.056128226
0.39217308 0.5157813 -0.016975453 0.30060756 1.4840657 0.17184925 0.20653042 -0.37947723
2.207629 0.69770646 0.569528 0.014773336 0.04237601 0.051155843 0.15638886 0.106083214
-0.04762475 0.020985916 -0.018540213 0.06887639 0.0938312 0.13910076 0.2013581 0.020343408
0.06128665 1.4761946 0.12355071 0.22465621 -0.43237343 2.117453 0.62787837 0.5500366
-0.13622235 0.07594196 -0.2400654 -0.045248896 -1.3139756 -0.29312876 0.6460427 -1.5150013
-0.6868613 1.3387618 -0.2817707 2.7316387 -0.66667914 1.5641642 1.1284809 -0.009267531
0.22173388 -0.50971 0.0030287914 -1.4060428 -1.3167226 -0.083491005 0.16521135 -0.5158548
0.11698148 -2.928123 0.6756463 0.7740375 -0.15084921 -0.1155008 0.020516438 -0.1082602
0.65898216 -0.16620386 0.10655556 -0.8079829 1.8291204 -1.5681447 1.3072983 -2.6443973
-0.108699456 1.7617283 0.8360866 -0.2742052 -0.023560401 -0.5376546 -1.0954534 -0.1752579
0.097024895 0.13274848 0.260924 0.09743016 -0.07769306 0.16843832 -1.4269354 -0.2817812
-0.07499056 0.28470227 -1.6104022 -1.0466683 -1.0615412 -0.68155384 0.31402677 -0.22782935
-1.4109361 -0.66218907 -3.5670962 -2.5794864 2.082531 -0.8900437 -0.005184926 0.02763641
0.08274244 0.1178723 0.10766811 -0.051370345 0.030698044 -0.08923539 0.90570825 -1.4305366
-2.6185486 -0.33444333 0.2705941 0.74983746 -0.018663786 0.13065751 0.059238393 0.11147957
0.056858245 -0.055116683 0.009500087 0.017915826 0.036863044 0.061568968 0.14377205 0.08103986
-0.015519275 0.050588455 -0.0110290535 0.09000744 0.10582887 0.00920823 0.09108489 -0.018988091
0.017813765 -0.03045366 0.046664625 0.11082923 0.12906899 0.030555237 -0.05110326 0.046238877
0.0044655446 -0.0097484095 0.2304482 0.13762236 0.1433523 -0.10818226 -0.025194466 0.0031747927
0.038537577 0.11693236 0.0832981 0.17710815 -0.04736352 0.0365056 -0.014915989 0.06747663
0.02328293 0.080889046 0.093650565 0.0031119252 0.01909197 -0.034026742 0.023061568 0.13594428
0.12674342 0.12548709 0.002927101 0.05031634 0.0055460427 0.037200052 0.09164319 0.12754956
0.11700351 -0.042192765 0.04016835 -0.004574496 0.028009083 0.083333835 0.118148446 0.10805059
-0.0510587 0.03126106 -0.009028508 0.023882618 0.078324206 0.114867195 0.104460455 -0.05409985
0.027805727 0.017896026 0.05122028 0.10862676 0.14087506 0.13045207 -0.028626436 0.053275432
-0.02249476 0.010115344 0.06624824 0.0998179 0.08908902 -0.06955687 0.012669864 -0.014469566
0.018862173 0.07578362 0.11103517 0.10045624 -0.058634892 0.02360661 0.02048605 0.053207304
0.108896725 0.14160168 0.13133767 -0.027846586 0.053697277 -0.011638712 0.020898126 0.07663701
0.111410156 0.1010429 -0.057875972 0.02433008 0.0016102797 0.03356565 0.087287664 0.124284126
00000000: d64b 2c3f 35ce 3c3e 3131 173e d7e2 12bf
00000010: 9acc efbe 866e d2be 2ba5 84be b739 6cbe
00000020: 822f cdbd 2974 a7be 2293 383f 5cda 9dbf
00000030: b447 8b3f 1dc3 993f 957d c5bc 2654 853d
00000040: dfb2 9c3e e604 d6bc 9fc3 b9be 423e 633d
00000050: 16fe 3d3e a6a3 853d 511f 9dbd b6e6 65bd
00000060: e9ca c83e 3e0a 043f 1b10 8bbc 3ce9 993e
00000070: ddf5 bd3f 40f9 2f3e b67c 533e d74a c2be
00000080: cb49 0d40 e49c 323f 96cc 113f dd0b 723c
00000090: 7892 2d3d ca88 513d 6724 203e 2842 d93d
000000a0: 2b12 43bd a8ea ab3c a5e1 97bc 110f 8d3d
000000b0: 922a c03d 6e70 0e3e d130 4e3e 38a7 a63c
000000c0: b607 7b3d f2f3 bc3f 2808 fd3d 470c 663e
000000d0: 0d60 ddbe 5a84 0740 a3bc 203f 33cf 0c3f
000000e0: df7d 0bbe 7587 9b3d b4d3 75be e856 39bd
000000f0: 5a30 a8bf f914 96be 0e63 253f 90eb c1bf
00000100: 24d6 2fbf 8c5c ab3f 4044 90be 2bd3 2e40
00000110: 7cab 2abf 8836 c83f 1072 903f d8d6 17bc
00000120: 350e 633e 5b7c 02bf b07e 463b 36f9 b3bf
00000130: 5e8a a8bf 55fd aabd 2a2d 293e 0f0f 04bf
00000140: fc93 ef3d 5e66 3bc0 28f7 2c3f 5227 463f
00000150: 3778 1abe af8b ecbd 1712 a83c 86b7 ddbd
00000160: 0eb3 283f 5831 2abe cd39 da3d f8d7 4ebf
00000170: 9e20 ea3f f7b8 c8bf 8d55 a73f ce3d 29c0
00000180: d29d debd 5080 e13f c509 563f a064 8cbe
00000190: be01 c1bc bba3 09bf d137 8cbf cf76 33be
000001a0: fdb4 c63d 38ef 073e d597 853e 7789 c73d
000001b0: 8a1d 9fbd 187b 2c3e d2a5 b6bf a045 90be
000001c0: a794 99bd 7fc4 913e a921 cebf 3af9 85bf
000001d0: 95e0 87bf 507a 2ebf 1ec8 a03e 194c 69be
000001e0: 8e99 b4bf 3985 29bf 4e4b 64c0 4e16 25c0
000001f0: 3048 0540 e7d9 63bf 50e6 a9bb c165 e23c
00000200: de74 a93d 0867 f13d 1981 dc3d b669 52bd
00000210: 777a fb3c 0bc1 b6bd 7fdc 673f d31b b7bf
00000220: 4d96 27c0 283c abbe 4f8b 8a3e 59f5 3f3f
00000230: cce4 98bc 15cb 053e f5a3 723d 674f e43d
00000240: 31e4 683d 08c2 61bd 41a6 1b3c 36c4 923c
00000250: b4fd 163d be2f 7c3d fb38 133e 3af8 a53d
00000260: 8f44 7ebc d735 4f3d 34b3 34bc d255 b83d
00000270: cebc d83d 1ede 163c b78a ba3d ea8c 9bbc
00000280: 2cee 913c f479 f9bc 6823 3f3d 6ffa e23d
00000290: a92a 043e fa4e fa3c a751 51bd fa64 3d3d
000002a0: b453 923b cbb7 1fbc 9dfa 6b3e e0ec 0c3e
000002b0: f2ca 123e a98e ddbd a064 cebc 2f10 503b
000002c0: 94d9 1d3d 3c7a ef3d 3298 aa3d d75b 353e
000002d0: 4000 42bd e586 153d 3162 74bc 3031 8a3d
000002e0: d8bb be3c 28a9 a53d decb bf3d 71f1 4b3b
000002f0: c366 9c3c a05f 0bbd 9deb bc3c fa34 0b3e
00000300: 07c9 013e b07f 003e 9bd4 3f3b 8218 4e3d
00000310: 94bb b53b 155f 183d 6daf bb3d 5a9c 023e
00000320: 899f ef3d 52d2 2cbd 9187 243d a7e5 95bb
00000330: 4e73 e53c eeaa aa3d d0f7 f13d a149 dd3d
00000340: ed22 51bd 990b 003d 4fec 13bc 7ba5 c33c
00000350: 7168 a03d 7e3f eb3d 5def d53d ce97 5dbd
00000360: d6c8 e33c b09a 923c 5bcc 513d b577 de3d
00000370: 8d41 103e 3a95 053e fd81 eabc 5737 5a3d
00000380: ee46 b8bc d4ba 253c 28ad 873d 546d cc3d
00000390: 4e74 b63d d573 8ebd 4395 4f3c c211 6dbc
000003a0: d884 9a3c 7134 9b3d 6866 e33d 00bc cd3d
000003b0: 242b 70bd a662 c13c 5cd2 a73c e7ef 593d
000003c0: 3f05 df3d 0800 113e 627d 063e 861e e4bc
000003d0: adf1 5b3d 4cb0 3ebc 8c32 ab3c ddf3 9c3d
000003e0: 022b e43d 94ef ce3d 5b0f 6dbd e04f c73c
000003f0: 0510 d33a 237c 093d e0c3 b23d ad88 fe3d

conv_layers.2.bias f4 [64]
-0.00022760131 4.0285136e-05 5.129329e-05 3.5776768e-05 -0.0001666874 -5.5371223e-05 -0.00023113383 0.00013574028
-0.00015144258 7.0616225e-05 -0.00017516421 8.529888e-05 -0.00015750558 6.646231e-05 -9.66347e-06 0.00018813
0.00019232668 2.8466036e-05 0.00012143548 4.9241844e-05 -0.00012682195 6.0517206e-05 -0.000105075764 1.664093e-05
3.07713e-05 8.802457e-05 0.00018468506 3.9706323e-05 9.438227e-05 0.00022742905 0.00022030226 2.9136947e-05
-0.00019464345 -8.9969406e-05 0.00019502091 -0.000108645145 -7.379153e-05 0.00019308543 0.00019068968 2.7952017e-05
-7.1806266e-05 -0.00013894969 0.00022540198 -0.00014103409 1.3592944e-05 0.0001720458 -6.61974e-06 9.4331095e-05
1.8140545e-05 -0.00010139345 -0.00018078739 0.0001593449 0.000138357 -7.909086e-05 -2.1747355e-05 -6.603441e-06
1.2251745e-06 -3.4108775e-06 3.8675924e-05 -3.787576e-05 -0.000102692065 0.00020072372 -0.00012346076 -5.0893002e-05
00000000: 43a8 6eb9 d6f7 2838 c023 5738 030f 1638
00000010: cfc8 2eb9 663e 68b8 845c 72b9 8155 0e39
00000020: 8fcc 1eb9 cc17 9438 49ac 37b9 7de2 b238
00000030: 1528 25b9 ae61 8b38 4a20 22b7 c344 4539
00000040: 4dab 4939 59ca ee37 2dab fe38 0789 4e38
00000050: 82fb 04b9 dbd3 7d38 1f5c dcb8 2098 8b37
00000060: 6f10 0138 d599 b838 05a8 4139 578a 2638
00000070: 18ef c538 057a 6e39 f000 6739 1e6b f437
00000080: 3419 4cb9 f5ad bcb8 877e 4c39 6bd8 e3b8
00000090: 87c0 9ab8 fa76 4a39 dff3 4739 807a ea37
000000a0: b296 96b8 06b3 11b9 e259 6c39 8de2 13b9
000000b0: 400d 6437 3167 3439 221f deb6 9fd3 c538
000000c0: 862c 9837 32a3 d4b8 bf91 3db9 d215 2739
000000d0: ed13 1139 95dd a5b8 176e b6b7 2093 ddb6
000000e0: ad70 a435 6ee6 64b6 f537 2238 cadc 1eb8
000000f0: 625c d7b8 5d79 5239 3f75 01b9 f275 55b8

batch_norms.0.weight f4 [64]
0.75074536 -0.0021007832 0.0016303072 -0.0028303382 -9.910506e-05 0.0002911954 -0.0065713655 0.0008889181
6.124414e-05 -0.00030210303 9.953984e-05 0.307384 -0.00016272247 0.01888319 -0.00024421632 0.012887089
-0.0023458903 -0.00014522842 0.00028393083 0.00033730935 0.00037535527 -3.599414e-05 -0.0010613033 0.00039163217
0.9708952 8.129951e-05 0.36022875 -0.0005086024 0.0021342502 -0.0065402933 -0.0005923913 1.086651
0.0008074861 0.7582266 -0.00053225504 -7.3411065e-05 0.0021588427 -0.0020634953 -0.00035527698 0.00032572087
1.0532492 -0.003318719 -0.0005837207 -0.00055024284 -0.00019252795 -0.0024054116 0.8589178 -0.0051032878
0.00011523851 0.0035003887 0.3000056 0.0033476027 -0.0052376417 4.933178e-05 0.0910863 -0.00012359614
-0.0007090831 -0.00010546264 0.00039171748 -0.002054737 0.0008279088 -0.0003911383 0.72562486 -0.001056168
00000000: d930 403f 4bad 09bb 08b0 d53a 327d 39bb
00000010: a0d6 cfb8 96ab 9839 9c54 d7bb 4906 693a
00000020: 3370 8038 9563 9eb9 0bc0 d038 7061 9d3e
00000030: 7ba0 2ab9 ebb0 9a3c 290a 80b9 5e24 533c
00000040: 82bd 19bb 7548 18b9 8ddc 9439 e5d8 b039
00000050: 55cb c439 6af8 16b8 6e1b 8bba fb53 cd39
00000060: 968c 783f 587f aa38 e76f b83e bb53 05ba
00000070: c7de 0b3b f54f d6bb b54a 1bba 6117 8b3f
00000080: 7aad 533a 231b 423f 0887 0bba 44f4 99b8
00000090: 5f7b 0d3b b53b 07bb 7844 bab9 84c5 aa39
000000a0: dfd0 863f de7e 59bb d504 19ba 2c3e 10ba
000000b0: 54e1 49b9 1ca4 1dbb 09e2 5b3f 7b39 a7bb
000000c0: 34ac f138 c766 653b 569a 993e 7463 5b3b
000000d0: 86a0 abbb 98e9 4e38 748b ba3d 9699 01b9
000000e0: c3e1 39ba d32b ddb8 6e5f cd39 c4a8 06bb
000000f0: 0508 593a b211 cdb9 8dc2 393f 1e6f 8aba

batch_norms.0.bias f4 [64]
0.19655368 -0.07695462 -0.056906 -0.048999548 -0.005335608 -0.0041247564 -0.07357608 -0.016202606
-0.0030192772 -0.023785183 -0.0044995425 -0.2739921 -0.0053037372 -0.13315058 -0.0077581033 -0.44890133
-0.0675695 -0.0041667707 -0.008378755 -0.020715432 -0.10242917 -0.00019007195 -0.011808276 -0.013040794
-0.19822605 -0.005063807 0.33755893 -0.008952825 -0.002919148 -0.1987405 -0.05367634 -0.36292768
-0.022290975 -1.1349057 -0.013673274 -0.022557141 -0.002604469 -0.03897724 -0.010704162 -0.009503644
-0.083508305 -0.13282849 -0.029323794 -0.047567327 -0.01551931 -0.043853506 0.22065665 -0.25150272
-0.0024040723 -0.017086893 -0.14197367 -0.06424938 -0.066960655 -0.00895611 -0.2320874 -0.00475098
-0.006983113 -0.004726108 -0.020645373 -0.038320214 -0.020349173 -0.014828871 0.32030696 -0.02058823
00000000: 5e45 493e 629a 9dbd 4416 69bd c0b3 48bd
00000010: 53d6 aebb f728 87bb 0eaf 96bd 54bb 84bc
00000020: 11df 45bb 25d9 c2bc e670 93bb b148 8cbe
00000030: f9ca adbb a058 08be b037 febb 65d6 e5be
00000040: e161 8abd 6889 88bb 0c47 09bc 69b3 a9bc
00000050: 62c6 d1bd 0d4e 47b9 8077 41bc 0ea9 55bc
00000060: c5fb 4abe 4bee a5bb 86d4 ac3e dfae 12bc
00000070: 2d4f 3fbb a182 4bbe b9db 5bbd a8d1 b9be
00000080: 909b b6bc 9744 91bf de05 60bc c1c9 b8bc
00000090: bdaf 2abb 99a6 1fbd 8260 2fbc 2cb5 1bbc
000000a0: 6706 abbd 3104 08be 7438 f0bc f5d5 42bd
000000b0: b444 7ebc bc9f 33bd d1f3 613e f7c4 80be
000000c0: a48d 1dbb d0f9 8bbc 8c61 11be 2e95 83bd
000000d0: ab22 89bd a6bc 12bc 52a8 6dbe 1cae 9bbb
000000e0: 99d2 e4bb 78dd 9abb 7c20 a9bc a8f5 1cbd
000000f0: 4fb3 a6bc cbf4 72bc 46ff a33e a6a8 a8bc

batch_norms.0.running_mean f4 [64]
-5282.3228 127.41624 -946.13794 -19.627476 4.4602695 -5.434998 423.67654 -281.757
-3.4429388 -121.94247 2.2619555 -691.17633 -110.54527 -150.49918 -16.114595 -9164.097
1270.8336 117.45089 -31.679453 -37.35129 -72.97688 41.09178 10.005569 -88.83814
-3339.3726 23.822624 1472.9601 59.48615 6.086085 -5496.6885 69.15102 -2986.3132
51.219833 -16616.418 -1.5268078 276.87164 3.8663895 593.79755 35.26577 -6.6783314
-2583.537 -1788.5867 352.44983 -928.37787 111.672386 -1321.4766 -665.152 -1615.1823
-25.780384 -221.06976 7304.1875 4150.5283 646.913 -31.162416 2350.419 -168.96431
36.57458 -18.615475 -20.56541 -165.22644 25.343151 -100.63804 1379.6609 500.02856
00000000: 9512 a5c5 1dd5 fe42 d488 6cc4 1205 9dc1
00000010: 87ba 8e40 81eb adc0 99d6 d343 e5e0 8cc3
00000020: 1c59 5cc0 8be2 f3c2 e1c3 1040 49cb 2cc4
00000030: 2e17 ddc2 ca7f 16c3 b1ea 80c1 6330 0fc6
00000040: adda 9e44 dbe6 ea42 856f fdc1 b967 15c2
00000050: 2af4 91c2 fc5d 2442 d016 2041 21ad b1c2
00000060: f6b5 50c5 bc94 be41 b91e b844 d1f1 6d42
00000070: 35c1 c240 82c5 abc5 524d 8a42 03a5 3ac5
00000080: 1ce1 4c42 d6d0 81c6 706e c3bf 926f 8a43
00000090: ed72 7740 0b73 1444 2610 0d42 e4b4 d5c0
000000a0: 9878 21c5 c692 dfc4 9439 b043 2f18 68c4
000000b0: 4358 df42 402f a5c4 ba49 26c4 d5e5 c9c4
000000c0: 3a3e cec1 dc11 5dc3 8041 e445 3ab4 8145
000000d0: 6fba 2144 a14c f9c1 b4e6 1245 ddf6 28c3
000000e0: 5f4c 1242 7eec 94c1 f685 a4c1 f839 25c3
000000f0: c6be ca41 ad46 c9c2 2675 ac44 a803 fa43

batch_norms.0.running_var f4 [64]
2.3998634e+08 3.534553e+06 4.3435576e+07 5.1493235e+06 24802.377 274292.12 1.7040428e+07 861844.44
11942.263 847919.44 54530.656 9.626398e+07 587381.3 9.279753e+07 538556.6 2.0244493e+09
2.2817104e+07 578740.0 240663.66 393855.62 6.641009e+07 5992.824 1.6712929e+06 502331.94
5.1577948e+07 80319.02 5.1309332e+07 120611.48 2750.702 6.4571526e+08 3.2054522e+07 5.7614908e+07
3.9626482e+06 1.123509e+10 715450.3 46866.805 985.9522 4.11699e+07 3.2985332e+06 263811.62
4.6254784e+07 3.2254038e+08 3.0258092e+06 5.2359492e+07 49243.574 3.1521428e+07 3.065656e+07 3.7399664e+08
98543.695 399399.7 9.519368e+07 1.2835293e+08 9.404754e+06 143267.98 1.113683e+09 1.2108724e+06
173873.62 131855.31 333029.25 2.8635458e+07 3.2863308e+06 8.774774e+06 1.0975079e+08 8.864665e+06
00000000: 6ade 644d 64bb 574a 8eb1 254c 1725 9d4a
00000010: c1c4 c146 84ee 8548 1602 824b 4769 5249
00000020: 0d99 3a46 f702 4f49 a802 5547 e69b b74c
00000030: 5567 0f49 4bff b04c ca7b 0349 4a55 f14e
00000040: a814 ae4b 404b 0d49 ea05 6b48 f44f c048
00000050: 9a55 7d4c 9846 bb45 e703 cc49 7e47 f548
00000060: 17c1 444c 83df 9c47 c5ba 434c bd91 eb47
00000070: 3beb 2b45 55f3 194e 7d8e f44b 8fc8 5b4c
00000080: 61dc 714a 786a 2750 a5ab 2e49 ce12 3747
00000090: f17c 7644 fb0c 1d4c 9553 494a 74d0 8048
000000a0: b072 304c 9bcc 994d 45ae 384a 51bc 474c
000000b0: 935b 4047 4a7d f04b 18e4 e94b e355 b24d
000000c0: d977 c047 f604 c348 4a91 b54c 54d0 f44c
000000d0: 5281 0f4b ffe8 0b48 e8c2 844e c3cf 9349
000000e0: 68cc 2948 d4c3 0048 a89c a248 a178 da4b
000000f0: eb94 484a 76e4 054b 4155 d14c 9943 074b

batch_norms.1.weight f4 [64]
0.00044471154 -0.00033328033 0.00054683106 -0.00012041043 0.31277308 0.008862819 0.00045371198 0.00024717956
-5.3889627e-05 -0.0003711698 5.9125698e-05 9.593885e-05 -2.754697e-05 -0.00030393805 0.0015927599 8.026429e-05
-0.018336028 0.00021356324 0.00023296662 8.9648085e-05 0.00013586416 0.00024152336 -0.0003293957 0.009175092
-0.0003672376 9.961632e-05 0.7845244 0.6353569 0.0019324343 0.16455053 0.00013773708 -0.0015128019
0.00029081033 4.5956127e-05 0.5951635 -0.0006582278 -9.028056e-05 0.0034951856 -0.0013356984 0.0026119652
0.7251845 0.2777194 0.6221268 -0.000152267 0.011007942 0.000537247 -1.3801405e-05 0.0038022448
-4.9994724e-05 -5.2564014e-06 0.60845107 1.5856216e-05 -5.246055e-05 0.5468488 0.00015822545 0.20970589
-0.0010903275 -0.0009090435 0.000438312 0.38590893 -0.0073241554 8.818941e-06 -0.009903753 -0.0007113153
00000000: 2c28 e939 21bc aeb9 3659 0f3a db84 fcb8
00000010: cb23 a03e 5b35 113c 31e0 ed39 e197 8139
00000020: 8c07 62b8 9199 c2b9 bcfd 7738 c732 c938
00000030: ab14 e7b7 e059 9fb9 27c4 d03a 9053 a838
00000040: 7035 96bc f2ef 5f39 8048 7439 7301 bc38
00000050: c276 0e39 6f41 7d39 beb2 acb9 2053 163c
00000060: cc89 c0b9 1be9 d038 97d6 483f c0a6 223f
00000070: bc49 fd3a ef7f 283e 846d 1039 3549 c6ba
00000080: e777 9839 04c1 4038 a35c 183f eb8c 2cba
00000090: 0255 bdb8 7c0f 653b 9a12 afba 812d 2b3b
000000a0: b1a5 393f 3d31 8e3e b443 1f3f dda9 1fb9
000000b0: a85a 343c 09d6 0c3a 958c 67b7 152f 793b
000000c0: 6db1 51b8 2560 b0b6 73c3 1b3f f702 8537
000000d0: 1609 5cb8 48fe 0b3f 52e9 2539 24bd 563e
000000e0: 52e9 8eba e04c 6eba 3ecd e539 db95 c53e
000000f0: 78ff efbb 10f5 1337 5a43 22bc 9077 3aba

batch_norms.1.bias f4 [64]
-0.010032762 -0.0072049685 -0.0074424963 -0.0055132513 -0.23027344 -0.11154474 -0.017776553 -0.014067133
-0.052861392 -0.010580946 -0.0017890623 -0.0022731975 -0.0054949047 -0.012818601 -0.015776409 -0.0076516797
-0.13943598 -0.008591995 -0.0059570046 -0.003460571 -0.009459644 -0.005204156 -0.011981139 -0.1977779
-0.020180734 -0.021754865 0.018889042 -0.071023546 -0.0039541265 -0.33637574 -0.002600499 -0.020228157
-0.02329379 -0.003546109 0.26640478 -0.022411095 -0.0049625672 -0.054609492 -0.010256165 -0.035042178
0.263279 -0.24554217 0.2668515 -0.003454292 -0.2501575 -0.0018442782 -0.00169598 -0.12602633
-0.0052338056 -0.0029313855 0.14382078 -0.0026253473 -0.0041671037 -0.11244203 -0.0030665183 -0.1167237
-0.027294237 -0.01538808 -0.015163883 0.4303169 -0.16891532 -0.0054205623 -0.10055431 -0.026512047
00000000: 7460 24bc a817 ecbb 2fe0 f3bb 81a8 b4bb
00000010: cdcc 6bbe 9271 e4bd 22a0 91bc d579 66bc
00000020: 3085 58bd b45b 2dbc f87e eaba edf9 14bb
00000030: 9a0e b4bb 1c05 52bc 873d 81bc f1ba fabb
00000040: 4ec8 0ebe 70c5 0cbc fa32 c3bb bfca 62bb
00000050: 9ffc 1abc a087 aabb 8a4c 44bc 4a86 4abe
00000060: 1152 a5bc 4237 b2bc 31bd 9a3c cb74 91bd
00000070: 9e91 81bb 7139 acbe 226d 2abb 85b5 a5bc
00000080: 9ed2 bebc d665 68bb 3566 883e 7997 b7bc
00000090: 089d a2bb 34ae 5fbd 7909 28bc 6388 0fbd
000000a0: 81cc 863e 686f 7bbe c3a0 883e 6761 62bb
000000b0: a514 80be b5bb f1ba a54b deba 0c0d 01be
000000c0: 5880 abbb 7d1c 40bb c145 133e 050e 2cbb
000000d0: 338c 88bb 0248 e6bd a4f7 48bb d60c efbd
000000e0: 2a98 dfbc 491e 7cbc ef71 78bc 7f52 dc3e
000000f0: 23f8 2cbe f99e b1bb 6bef cdbd cb2f d9bc

batch_norms.1.running_mean f4 [64]
10.883249 44.907547 123.58459 23.42178 38540.55 1026.8081 75.41048 -121.32795
-118.39677 106.44379 20.640667 89.139786 -26.505884 -84.182976 359.1613 76.29435
-3428.2852 191.2497 34.534546 -55.37182 -210.29199 -11.074149 -255.32513 -355.97513
-161.89368 -65.21643 2691.942 -9387.951 -1.0615252 7976.3745 -62.956314 -352.52347
37.251675 -75.19066 13983.906 99.73475 -192.37318 -95.40751 -244.633 513.46735
15685.114 4737.1187 32808.945 56.70746 -2239.089 -49.34798 -11.353758 702.197
65.687 -7.385551 -8408.614 -122.710724 -34.372025 697.23724 38.83361 13226.657
429.2324 126.47674 2208.3708 6977.5884 -5433.5356 48.57859 -28.060658 10.298849
00000000: ca21 2e41 54a1 3342 4f2b f742 ce5f bb41
00000010: 8d8c 1647 dc59 8044 2ad2 9642 e9a7 f2c2
00000020: 25cb ecc2 38e3 d442 1620 a541 9247 b242
00000030: 0d0c d4c1 af5d a8c2 a594 b343 b596 9842
00000040: 9044 56c5 ec3f 3f43 6023 0a42 be7c 5dc2
00000050: c04a 52c3 b72f 31c1 3c53 7fc3 d1fc b1c3
00000060: c8e4 21c3 d06e 82c2 123f 2845 ceaf 12c6
00000070: 0fe0 87bf ff42 f945 44d3 7bc2 0143 b0c3
00000080: b701 1542 9e61 96c2 a07f 5a46 3178 c742
00000090: 895f 40c3 a5d0 bec2 0ca2 74c3 e95d 0044
000000a0: 7514 7546 f308 9445 f228 0047 70d4 6242
000000b0: 6df1 0bc5 5564 45c2 fea8 35c1 9c8c 2f44
000000c0: be5f 8342 6f56 ecc0 7562 03c6 e46b f5c2
000000d0: f47c 09c2 2f4f 2e44 9e55 1b42 a1aa 4e46
000000e0: bf9d d643 17f4 fc42 ef05 0a45 b50c da45
000000f0: 49cc a9c5 7a50 4242 3a7c e0c1 16c8 2441

batch_norms.1.running_var f4 [64]
23189.336 1.5617616e+06 236110.48 58933.44 1.528475e+08 8.1383656e+07 2.4274002e+07 4.65341e+06
5.714456e+07 1.2300475e+06 121408.35 232889.83 1.7041065e+06 1.7914308e+06 303517.47 228960.12
4.09381e+09 3.8523588e+06 376433.4 288654.5 4.0469625e+06 193335.98 1.7070316e+06 3.6852908e+09
825468.94 5.520146e+06 8.725493e+07 9.927867e+07 1596.3575 1.12267096e+08 562393.94 935021.25
2.1733144e+07 1.4898215e+06 8.3276506e+08 1.5033225e+07 513808.06 5.0418892e+07 1.1739575e+06 3.6123405e+06
1.3540805e+08 1.5334262e+09 4.8631968e+08 131851.9 4.0975005e+08 20948.217 46532.84 5.0881812e+07
335475.3 27601.072 1.3121295e+09 4.050062e+06 132167.56 5.3551984e+07 116846.24 2.2119152e+10
4.435139e+07 1.3529441e+06 6.4709628e+07 9.770326e+07 1.2836664e+09 1.9589114e+06 5.955493e+08 9.242148e+07
00000000: ac2a b546 0da5 be49 9f93 6648 7135 6647
00000010: 49c4 114d 1d3a 9b4c 2932 b94b c402 8e4a
00000020: 3cfd 594c fc26 9649 2d20 ed47 756e 6348
00000030: 5405 d049 36ae da49 af33 9448 0898 5f48
00000040: 9502 744f 1b21 6b4a 2dce b748 d0f1 8c48
00000050: ca01 774a ffcd 3c48 bd60 d049 13a9 5b4f
00000060: cf87 4949 2476 a84a f26c a64c ea5b bd4c
00000070: 718b c744 eb21 d64c 9f4d 0949 d446 6449
00000080: 8ccf a54b ecdc b549 f28b 464e 8963 654b
00000090: 02e2 fa48 3355 404c 2c4e 8f49 d27a 5c4a
000000a0: 9b22 014d 74cc b64e 32e5 e74d fac2 0048
000000b0: 5162 c34d 6fa8 a346 d7c4 3547 4519 424c
000000c0: 6ace a348 25a2 d746 046b 9c4e 3832 774a
000000d0: e411 0148 dc48 4c4c 1f37 e447 efcc a450
000000e0: e82f 294c 8127 a549 ffd8 764c ac5a ba4c
000000f0: 6406 994e fb1f ef49 72fd 0d4e ad47 b04c

batch_norms.2.weight f4 [64]
0.90916103 0.000792885 0.00013824644 -6.7442356e-06 0.0008003201 0.0005214515 -0.00028948692 0.0011210369
-0.00013343626 -0.0038727757 0.00012910753 -0.0005258158 -0.0009940381 0.00015747959 0.0016686054 -0.0034480577
0.00017123434 0.00024580877 0.00021838942 0.0002335056 -0.00059553183 0.0019491133 0.00033183224 -0.00024897663
8.0095095e-05 -0.00020979374 -0.0005601379 -0.00049897894 0.00020015526 0.0028680447 -0.00025174426 1.8617291e-06
0.00026462445 6.4105545e-05 -0.00028519178 0.00017050936 -0.0018878696 0.008129101 0.0013649741 7.101737e-05
0.00040437593 0.80121577 -0.00029684056 -1.7286846e-05 -0.00011105741 0.0045244372 0.4367405 0.0007251349
-0.0030597786 0.0002552777 -0.00020884162 0.0005682003 0.0005520444 -0.00035401405 4.2253796e-05 1.7596229e-05
0.0001671386 0.0027644963 7.52793e-05 0.00017672798 0.0005971222 0.77532697 0.0007918659 -0.00019367134
00000000: c7be 683f 9dd9 4f3a 3ff6 1039 8b4c e2b6
00000010: 93cc 513a 05b2 083a 47c6 97b9 c2ef 923a
00000020: 06eb 0bb9 65ce 7dbb 0a61 0739 e7d6 09ba
00000030: 624a 82ba 1b21 2539 1bb5 da3a cff8 61bb
00000040: 5e8d 3339 e5df 8039 77ff 6439 2fd9 7439
00000050: 771d 1cba 6479 ff3a c5f9 ad39 1489 82b9
00000060: baf8 a738 14fc 5bb9 38d6 12ba e9cd 02ba
00000070: c5e0 5139 cef5 3b3b 8bfc 83b9 86e0 f935
00000080: 4bbd 8a39 6770 8638 cb85 95b9 c2ca 3239
00000090: 6472 f7ba ec2f 053c eee8 b23a 29ef 9438
000000a0: 6b02 d439 7a1c 4d3f 44a1 9bb9 3803 91b7
000000b0: 7ee7 e8b8 bb41 943b 739c df3e fb16 3e3a
000000c0: 9186 48bb cbd6 8539 7ffc 5ab9 47f3 143a
000000d0: 13b7 103a f69a b9b9 ab39 3138 9d9b 9337
000000e0: ed41 2f39 8d2c 353b 44df 9d38 0e50 3939
000000f0: 3188 1c3a d47b 463f 3995 4f3a 4114 4bb9

batch_norms.2.bias f4 [64]
-0.09088572 -0.011686809 -0.00372473 -0.0048746485 -0.017394785 -0.014174971 -0.0050815577 -0.017174916
-0.008496566 -0.06703064 -0.04337514 -0.009886141 -0.029417584 -0.0026295257 -0.046783976 -0.025320802
-0.0017399611 -0.0055198497 -0.0093243625 -0.0058091343 -0.004184756 -0.006425475 -0.010148903 -0.01440131
-0.0036886309 -0.0129663935 -0.006423536 -0.0313171 -0.0041427 -0.13801835 -0.008155548 -0.0029966843
-0.0067011965 -0.024673901 -0.0049973875 -0.0027135652 -0.04586006 -0.22426303 -0.11440557 -0.0037690387
-0.004703997 0.22053763 -0.0049539194 -0.0047966437 -0.0103021 -0.0358769 0.08095354 -0.015127446
-0.058245465 -0.061078604 -0.0035371513 -0.013429744 -0.021055767 -0.021227896 -0.0044724643 -0.0037094485
-0.0062960335 -0.04445755 -0.0068446603 -0.00627567 -0.003656938 0.24133515 -0.016930906 -0.006746633
00000000: 4b22 babd 087a 3fbc 9a1a 74bb 84bb 9fbb
00000010: 827f 8ebc 233e 68bc 3283 a6bb 69b2 8cbc
00000020: 2e35 0bbc 5c47 89bd 21aa 31bd 7bf9 21bc
00000030: 25fd f0bc 1f54 2cbb 8ea0 3fbd 926d cfbc
00000040: 680f e4ba dbdf b4bb 36c5 18bc 8d5a bebb
00000050: 4720 89bb ca8c d2bb 9647 26bc 79f3 6bbc
00000060: f5bc 71bb ff70 54bc 877c d2bb 5c46 00bd
00000070: 7dbf 87bb af54 0dbe d99e 05bc 0564 44bb
00000080: b695 dbbb ec20 cabc 20c1 a3bb 12d6 31bb
00000090: c2d7 3bbd 35a5 65be 784d eabd fa01 77bb
000000a0: fd23 9abb 9ed4 613e 7d54 a2bb 2a2d 9dbb
000000b0: 24ca 28bc a8f3 12bd f8ca a53d 1bd9 77bc
000000c0: cc92 6ebd 8f2d 7abd 8dcf 67bb 6e08 5cbc
000000d0: 257d acbc 20e6 adbc c08d 92bb 381a 73bb
000000e0: f54e cebb 1f19 36bd 2c49 e0bb 23a4 cdbb
000000f0: 3da9 6fbb 9020 773e afb2 8abc dc12 ddbb

batch_norms.2.running_mean f4 [64]
2342.7004 -262.47983 41.54411 98.57818 -1942.5286 -46.882812 106.471245 -720.9012
379.4688 -677.6156 -1141.5967 541.57947 2629.978 -16.983345 228.74385 1036.2335
-23.39988 -157.60703 -92.35281 -263.87033 96.62467 -31.854685 -47.07275 -541.786
-1.2319669 37.056194 48.87692 -215.42229 21.89769 -298.6056 130.15144 17.582735
142.44597 -280.4233 368.2059 23.36997 65.07812 -3261.1462 -548.986 17.443697
-31.240547 -6971.695 -26.970095 16.11735 141.8238 -2275.5166 7890.0547 -240.32843
-517.927 -77.66364 37.04559 268.95212 -536.3584 94.202614 56.651344 -36.968075
36.03 1663.299 108.6639 3.6544871 -163.48943 1663.6472 -372.2032 97.60662
00000000: 356b 1245 6b3d 83c3 2b2d 2642 0728 c542
00000010: ead0 f2c4 0088 3bc2 47f1 d442 ad39 34c4
00000020: 02bc bd43 6667 29c4 18b3 8ec4 1665 0744
00000030: a65f 2445 e4dd 87c1 6dbe 6443 7987 8144
00000040: f432 bbc1 669b 1dc3 a4b4 b8c2 67ef 83c3
00000050: d53f c142 65d6 fec1 7f4a 3cc2 4e72 07c4
00000060: 17b1 9dbf 8b39 1442 f781 4342 1b6c 57c3
00000070: 782e af41 844d 95c3 c526 0243 71a9 8c41
00000080: 2b72 0e43 2f36 8cc3 5b1a b843 b3f5 ba41
00000090: ff27 8242 57d2 4bc5 1b3f 09c4 b18c 8b41
000000a0: a4ec f9c1 8fdd d9c5 c1c2 d7c1 55f0 8041
000000b0: e5d2 0d43 4438 0ec5 7090 f645 1454 70c3
000000c0: 547b 01c4 c953 9bc2 af2e 1442 df79 8643
000000d0: f016 06c4 bd67 bc42 fa9a 6242 4fdf 13c2
000000e0: b81e 1042 91e9 cf44 eb53 d942 1ee3 6940
000000f0: 4b7d 23c3 b6f4 cf44 021a bac3 9736 c342

batch_norms.2.running_var f4 [64]
4.954976e+07 1.1107517e+07 222286.81 488148.97 7.386272e+07 385011.7 465478.62 1.1615326e+08
2.2941104e+07 1.3123893e+07 1.0333639e+08 1.3031272e+07 2.2049064e+07 18503.883 1.108761e+08 8.113823e+07
16270.414 2.8150108e+06 6.616027e+06 2.8119392e+06 106794.18 316107.47 3.026431e+06 1.1549157e+07
19178.807 287036.8 1.2226881e+06 6.0284385e+06 42969.02 1.2425138e+09 3.029299e+06 120385.3
5.1564745e+06 2.1030075e+06 4.5087145e+06 18205.143 1.8228349e+08 3.3045962e+09 6.407104e+08 25426.783
2.2412898e+06 3.790223e+08 329545.38 56373.22 1.4688178e+06 1.1722971e+09 2.8248727e+09 7.554064e+06
1.7074998e+08 1.6791678e+08 297631.12 1.7120484e+06 5.969522e+06 1.5661232e+06 613866.56 46491.39
171332.14 5.6773076e+07 1.2650211e+06 396920.47 1.1830881e+06 3.192735e+08 6.50722e+06 919354.56
00000000: 7004 3d4c bd7c 294b b413 5948 9f5a ee48
00000010: c8e1 8c4c 76fe bb48 d448 e348 768b dd4c
00000020: d806 af4b 3541 484b 3919 c54c 68d7 464b
00000030: 9438 a84b c48f 9046 b87a d34c 47c2 9a4c
00000040: a839 7e46 8bd0 2b4a b6e7 c94a 8da0 2b4a
00000050: 1795 d047 6f59 9a48 fcb7 384a e539 304b
00000060: 9dd5 9546 9a27 8c48 0141 9549 2df9 b74a
00000070: 05d9 2747 831e 944e cce4 384a a620 eb47
00000080: f55c 9d4a 7e5b 004a 5598 894a 493a 8e46
00000090: ced6 2d4d 23f8 444f dcc1 184e 91a5 c646
000000a0: 27cc 084a 5fbb b44d 2ce9 a048 3835 5c47
000000b0: 8e4c b349 abbf 8b4e 2360 284f 2088 e64a
000000c0: 02d7 224d 4f23 204d e453 9148 83fd d049
000000d0: e42c b64a 5a2d bf49 a9de 1549 649b 3547
000000e0: 0951 2748 7592 584c e96b 9a49 0fcf c148
000000f0: 816b 9049 d13d 984d a895 c64a a973 6049
